model.pth (torch, 8007 bytes, 5 tensors)

linear_relu_stack.0.weight f4 [32, 11]
000000 b1 98 b8 3c df 64 18 3e 47 4c 27 bd b8 c4 32 3f
       0.022533746 0.1488223 -0.040844228 0.6983142
000010 09 a7 21 bf 69 ae 20 bf 96 86 0a 3f 45 c2 df bd
       -0.631455 -0.6276613 0.5411161 -0.10925726
000020 b4 78 65 3e 6b 64 de 3e 96 b0 ab be 1e 5a a6 3d
       0.22409326 0.43435988 -0.33533162 0.08122657
000030 38 74 8b 3e ae 1c 5d 3e f3 47 c7 3e 85 3c f3 3d
       0.27237105 0.21592972 0.3892208 0.118767776
000040 b2 af bc 3e cb aa 41 3f 38 8d f5 be 79 0e 3c 3e
       0.36852795 0.75651234 -0.47959304 0.18364896
000050 d7 1c 0e 3e d9 30 cc 3d 7b 15 0d bf 77 52 b9 be
       0.13878189 0.099702545 -0.551109 -0.36195728
000060 c9 5c 35 bf b9 61 8e 3d 5d 00 2f bf ce 82 96 3d
       -0.70844704 0.06952233 -0.6835993 0.07349168
000070 1a cd 91 3d 40 a3 24 be a2 4c 82 3e fe 77 63 be
       0.07119198 -0.160779 0.2544909 -0.22213742
000080 c4 5f d6 be cc 82 b3 be 62 02 86 3e 84 28 e0 be
       -0.41869938 -0.35060728 0.26173693 -0.4378091
000090 e0 a9 81 3f 9a d7 da 3e 4d 67 d4 be e6 52 cb be
       1.0129967 0.42742616 -0.41485062 -0.39711684
0000a0 68 d5 1e 3d 18 30 3c bd c3 12 36 3e eb f3 da 3d
       0.03877774 -0.045944303 0.17780595 0.10691055
0000b0 98 b0 2b 3e 78 5d 82 bd 91 39 20 bd 22 e0 ea 3e
       0.16766584 -0.06365484 -0.0391174 0.45874125
0000c0 11 ab 1d 3e 4c d4 57 be 95 d8 8d 3f 0f 2c 49 3d
       0.15397288 -0.21077079 1.108172 0.049114283
0000d0 77 85 f7 3b 4b 1d 43 3d 6a 12 85 3e cf 1e 08 bf
       0.007553752 0.047635358 0.2599061 -0.5317201
0000e0 f2 45 6c be 3a e7 17 3d 40 3b f3 be e7 7d d0 3e
       -0.23073557 0.03708575 -0.47506142 0.40721056
0000f0 16 16 95 bc 5a 64 57 3f 2c 57 89 bd 2c 2a 44 3d
       -0.018199008 0.841375 -0.0670608 0.04789178
000100 ec bb 9e 3b 7d 37 a9 bd 4f 0b 9c be 95 6a 8a 3e
       0.0048441794 -0.08262537 -0.30477378 0.2703444
000110 53 61 a8 be 38 bc d2 bc fd d6 6f bd 37 c0 10 bf
       -0.32886752 -0.025724515 -0.05855464 -0.56543297
000120 39 c8 11 3f 3d 04 29 bf a0 2f e6 3e bb 48 84 be
       0.5694614 -0.6602209 0.4495821 -0.2583674
000130 23 42 be 3d 53 d9 f6 3d bc 49 08 3f 31 4c 89 bf
       0.09289958 0.1205317 0.5323751 -1.0726377
000140 08 00 e0 bf 96 cf 7a be 37 5d c5 bd ab ea 10 be
       -1.750001 -0.2449325 -0.0963692 -0.14152019
000150 a3 cb de bd e1 35 24 bd 80 ca 29 3e 12 6e a7 3c
       -0.10878684 -0.040090445 0.16581154 0.020438228
000160 43 38 7e 3e 94 d7 9d 3d 60 d2 a0 3e ad af 41 be
       0.2482615 0.07707134 0.31410503 -0.18914671
000170 26 f3 1b bf a0 a1 cb 3e ee 7c 18 bf 0a b2 28 3f
       -0.6091789 0.39771748 -0.5956563 0.65896666
000180 5a cc 84 bd 6d d0 a1 3c 8e 7a 97 3d cc 2a e9 be
       -0.064842895 0.019752705 0.07396422 -0.45540464
000190 54 37 93 bd ac e8 16 bd e3 d5 10 40 a4 ce 00 be
       -0.071882874 -0.036842987 2.2630546 -0.12578827
0001a0 93 55 03 be 38 c4 c3 bd 6a d6 65 bd b7 80 88 3d
       -0.12825613 -0.0955891 -0.056112684 0.066651754
0001b0 08 08 a6 3c c1 d4 14 bd 45 ab 2d bf 16 49 00 bf
       0.020267501 -0.03633571 -0.6783946 -0.5011152
0001c0 70 e5 89 3e 08 5a d9 3e 14 f8 38 3e 75 c6 ae bd
       0.2693286 0.424515 0.18063384 -0.085339464
0001d0 2a 9e b3 be 72 55 1b be 2d ef 7d be f0 34 86 3e
       -0.35081607 -0.15169314 -0.2479827 0.26212263
0001e0 43 c4 fc be 20 14 a9 be 4b a1 6f be fb 41 cc 3e
       -0.49368486 -0.33023167 -0.23401372 0.3989409
0001f0 2c c8 11 be c7 0e 36 bf 53 ce 27 bf 38 b4 8a be
       -0.14236516 -0.711163 -0.655492 -0.2709062
000200 4d 7b 8d be e3 d3 dd 3d a7 b9 f5 bd e3 35 75 be
       -0.27633134 0.1083143 -0.11998301 -0.23946337
000210 36 a6 26 bf 64 12 fb 3e ee 79 05 bf ef bf 4c be
       -0.6509737 0.49037468 -0.52139175 -0.19995092
000220 9b ed 44 bd 40 a8 c5 3c a6 ef a8 3e e0 e3 76 3e
       -0.04807816 0.02412808 0.32995337 0.24110365
000230 24 35 32 3e 5a 10 72 bc c4 c8 96 bb 22 ee 37 3f
       0.17403084 -0.014774406 -0.00460157 0.71847737
000240 2f f6 62 be da d3 1e be f8 90 b7 3e cd 2b 15 3f
       -0.22164224 -0.15510502 0.3585279 0.5826996
000250 48 23 e1 be 77 b3 ae be eb d1 ea 3d 55 fa f4 bc
       -0.4397223 -0.34121296 0.1146582 -0.029904524
000260 4c 70 00 3e f3 e6 0a bf 90 00 dd be e1 38 56 3e
       0.12542838 -0.5425865 -0.43164492 0.20920135
000270 31 44 5b be 02 89 f6 be b8 30 5d 3e f4 fa c2 bd
       -0.21412732 -0.48151404 0.21600616 -0.09520522
000280 1e 24 7a bf b3 4b 24 bf 4d da f9 3e 79 95 0d be
       -0.9771136 -0.6417801 0.48799363 -0.1382655
000290 2b 91 bf bc 82 7e 33 bf 40 49 f4 be 13 13 ad be
       -0.023384651 -0.7011491 -0.47712135 -0.33803615
0002a0 03 39 72 bf 44 92 3d bd ba ce 05 3f 19 4f f2 be
       -0.9461824 -0.046282068 0.52268565 -0.47325972
0002b0 c6 72 20 3f 37 f1 c0 3d b2 c0 8c 3e ec 33 3f 3e
       0.6267513 0.09421008 0.27490765 0.1867215
0002c0 ec 8e ee be b6 a5 d8 bd a3 ee 80 3e 8d 5d 5b be
       -0.46593416 -0.10578482 0.25182065 -0.21422406
0002d0 41 9b f4 bd 1e de 74 3e b3 f1 8d 3f d3 78 a1 be
       -0.11943675 0.23912856 1.1089386 -0.31537494
0002e0 24 82 26 3e 5f 36 ef 3a ab c6 01 be 8b 82 90 bc
       0.16260582 0.0018250457 -0.12673442 -0.017640373
0002f0 4f 84 be be be 9d 03 3e e4 98 c7 bf 36 7f b3 be
       -0.37210318 0.12853143 -1.5593534 -0.35057992
000300 64 d7 60 be 27 c3 3e 3d be ee 17 be 91 6c 6e 3e
       -0.21957165 0.04657283 -0.14837167 0.23283602
000310 54 3c ad 3d b7 b3 71 3e f6 26 7a bf ea 74 47 be
       0.08458772 0.23603712 -0.977157 -0.19478193
000320 f6 33 2a 3d 4f 15 9d be e5 33 72 3d 0b 93 61 3e
       0.04155346 -0.3068032 0.05913152 0.22028749
000330 4a 7c ef 3d 81 11 50 be 63 6b d7 bd 4e b2 08 be
       0.11693628 -0.20319177 -0.10518529 -0.13349268
000340 91 e8 81 bd 78 32 44 bf 43 1e 71 3d 72 40 aa 3d
       -0.06343187 -0.7663951 0.05886675 0.08313073
000350 39 f2 b8 bc 16 6f d6 bd ce 87 4d bf 8e 14 c8 bd
       -0.022576438 -0.10470407 -0.80285347 -0.097695455
000360 7c 93 a9 3e fc a1 9e 3d b0 7c 48 be 7d 54 97 3d
       0.33120334 0.0774574 -0.19578815 0.07389162
000370 eb 9b 92 bc cd 91 3b be 1f 94 10 3f 3d 5b 4b bf
       -0.017896613 -0.18317337 0.56476015 -0.79436094
000380 64 33 3a 3f 46 9a 3b 3e a2 c9 8d 3e d9 78 bb bd
       0.72734666 0.1832057 0.27692896 -0.09153909
000390 a6 8d 96 3e 2f 63 8b bd 34 8f c6 bd ac a8 9b 3e
       0.29404944 -0.06806027 -0.096952826 0.30402124
0003a0 d5 6b 59 3f 3d 88 01 bf 0c a9 f3 bc dd e6 9c bd
       0.84930164 -0.5059851 -0.029743694 -0.07661221
0003b0 0d 85 0c bf a1 d2 9a be 30 53 12 3f fc da ae 3d
       -0.5489052 -0.30238822 0.57158184 0.08537862
0003c0 e6 47 a3 3e ab 3c 15 bd 5a cc d9 bb 65 b3 a8 bd
       0.31890792 -0.03643481 -0.006646675 -0.08237342
0003d0 55 c0 90 bf 92 70 36 be 49 cd 13 3c 7c 30 2b be
       -1.1308695 -0.1781638 0.009021112 -0.16717714
0003e0 31 a7 d7 be e0 04 25 3e ed 65 97 3e d1 38 7b 3e
       -0.42119744 0.16115141 0.2956995 0.24533392
0003f0 61 9a e8 bc 97 4e 66 3f d8 a2 05 bf 66 bb 23 bf
       -0.028393926 0.8996367 -0.52201605 -0.6395782

linear_relu_stack.0.bias f4 [32]
000000 59 11 2b bf 9d a5 06 3f e9 71 04 bf ac bb e6 be
       -0.66823345 0.52596456 -0.51736313 -0.45065057
000010 f0 a3 b2 bf 33 2c a4 bf 47 6f 1d bf c8 0e d5 3c
       -1.395628 -1.2825989 -0.6149792 0.026008025
000020 f8 62 80 bf cd 04 ab be b6 fb 10 be e5 17 68 be
       -1.0030203 -0.334021 -0.1415852 -0.22665365
000030 da 2d 89 bf e2 9f 8d 3e 5c 42 12 bf b5 11 3a be
       -1.0717118 0.27661043 -0.57132506 -0.18170817
000040 b9 53 a3 bf 17 06 91 3f 87 31 93 bf 71 a2 b9 3e
       -1.2759925 1.1329983 -1.149949 0.36256745
000050 2f 44 79 bf b3 e4 67 bf af 1e a1 bf 0e 8c fb be
       -0.97369665 -0.9058334 -1.2587489 -0.4913029
000060 4f ff 79 bf 4e 2f 6c 3e 2e a9 30 3e 78 37 84 bf
       -0.97655195 0.2306492 0.17252037 -1.0329428
000070 6d 08 2d bf eb 02 28 bf cd 58 61 bf 75 86 b2 bf
       -0.6759098 -0.6562945 -0.88026124 -1.3947283

linear_relu_stack.2.weight f4 [32, 32]
000000 b3 62 27 3e 82 75 d4 3d 44 2a 77 bd 91 11 59 bd
       0.16346245 0.10373975 -0.060343042 -0.05299527
000010 2f a6 e7 be e3 70 69 be fa a6 d8 bd 92 45 28 bf
       -0.45243976 -0.22796969 -0.10578723 -0.65731156
000020 09 93 b6 be 79 d9 c3 3d 99 19 0a 3e ea f4 b0 be
       -0.35659054 0.09562964 0.13486327 -0.34561855
000030 3f 20 30 3e 1b 24 67 bd a0 4f bc bb d5 ad 90 be
       0.17199801 -0.056430917 -0.0057467967 -0.28257623
000040 41 33 1a be d7 33 02 c0 9c 4d 20 3f c1 4b 81 3e
       -0.15058614 -2.034414 0.6261842 0.25253108
000050 05 8a 7c 3c 0d 7d 75 3c 4e c0 f8 3e 01 d4 00 bf
       0.015413766 0.014983428 0.48584217 -0.5032349
000060 f9 a2 cd 3d e8 69 bf bf b0 18 08 3e 9f a6 ec be
       0.1004085 -1.4954195 0.13290668 -0.46220872
000070 c5 bc 40 3f e8 61 84 3e 5b 56 67 3f a1 46 2d 3e
       0.7528804 0.25855947 0.90366143 0.16921474
000080 7d 00 81 3e 33 6c 4a 3e 1b 7a 4e be fc fd 8d bf
       0.25195685 0.19767837 -0.20163767 -1.1093135
000090 9f 53 32 bf c9 53 0a 3e 3e c7 1a bf 37 11 db bd
       -0.69658846 0.13508524 -0.6046027 -0.10696643
0000a0 53 51 dd be 90 12 64 bf d0 d6 97 be 7a 64 2a be
       -0.43226108 -0.89090824 -0.29656076 -0.16639891
0000b0 8d 5a a8 3e de d4 82 bf f4 3b a0 3e 3f 1b 7a 3e
       0.32881585 -1.0221212 0.3129574 0.24424456
0000c0 e1 69 b5 be 1b e6 2a 3d 7a 5e 0c 3f ad 31 b2 3e
       -0.35432342 0.041723352 0.5483166 0.34803525
0000d0 f0 90 bd be 4a 2a 35 3f b5 47 13 3f af c9 15 bc
       -0.3702464 0.70767653 0.5753129 -0.009142323
0000e0 c7 27 a9 be 7b fd 40 3d d1 a1 09 bd 08 d8 b7 be
       -0.3303816 0.047116738 -0.033601586 -0.35907006
0000f0 af 20 33 bc b0 1f 34 bf 5b 17 1b be dd 23 76 3f
       -0.010933085 -0.7036085 -0.15145628 0.96148473
000100 f6 75 d4 bc 8d 63 6b be 88 76 2c bb 0c b4 7b be
       -0.025935154 -0.22987194 -0.0026315767 -0.24580401
000110 77 5d d8 be 3b a1 76 3c 64 9c e5 bd 5a f2 fd be
       -0.42258808 0.015053089 -0.1121147 -0.49598962
000120 9a ff e5 bd a0 9b 0e bd c3 71 a2 be da 58 84 3d
       -0.11230393 -0.034816384 -0.31727418 0.064622596
000130 fa cd 39 3d 73 2e 38 be 08 aa 3f 3e 9e 13 57 bd
       0.04536245 -0.17986469 0.18717206 -0.052508943
000140 22 3c 82 be 1d c7 d1 be 45 60 7d be de 9f ad 3d
       -0.25436503 -0.40972224 -0.24743755 0.08477758
000150 22 35 8c bd a2 65 27 be ea 79 4b 3d d5 4f c8 bd
       -0.06846072 -0.16347364 0.049676813 -0.09780852
000160 e4 f9 72 bd 3e a7 19 be f4 e6 ca bd ac 8e d2 be
       -0.059320346 -0.15005204 -0.09907332 -0.41124475
000170 1f 3b a9 3c bb 6a 76 be 0b df 64 be e1 d6 67 3d
       0.020658074 -0.24064152 -0.22350709 0.05660141
000180 7c ac 52 be d5 f0 db bd 33 be a6 bc 65 3f 14 be
       -0.2057361 -0.107392944 -0.020354366 -0.14477308
000190 c0 a1 54 be f1 b3 b5 be 94 5b 07 be 56 c6 03 bf
       -0.20764828 -0.35488847 -0.13218528 -0.5147451
0001a0 7c d7 3d bd 15 db 96 be f0 3c 32 be 11 b8 ea be
       -0.04634808 -0.2946402 -0.17406058 -0.45843557
0001b0 ed a2 7a bd bd ba 1a be 2a eb 24 3e 31 88 e3 bb
       -0.061190534 -0.15110298 0.16105333 -0.0069437255
0001c0 1e 6b 84 be 5c 00 57 bf 16 4b 1f 3e 20 90 7d be
       -0.25862974 -0.83984923 0.15555987 -0.2476201
0001d0 8b fc 38 bd d8 e4 d6 3d b0 79 2e 3e c6 71 f9 bd
       -0.04516272 0.10492867 0.17038608 -0.12179904
0001e0 ac d7 6f 3d ab 84 28 bd b0 dd 33 be b4 52 a5 3d
       0.05855529 -0.041142147 -0.17565036 0.08072415
0001f0 0c 6f 11 be 3a 76 1b 3d 26 bc df bd b8 a0 04 3e
       -0.14202517 0.037954547 -0.10924558 0.12951934
000200 6a 01 72 3e 69 b7 64 3d e7 37 30 bd 23 4e 03 bf
       0.23633352 0.055838976 -0.043022063 -0.512911
000210 68 21 54 bf 65 77 56 be 62 b6 94 bd 33 f4 d8 3d
       -0.82863474 -0.20943983 -0.07261349 0.10593452
000220 06 d3 b2 bb 02 21 93 bf 4c 3f ec 3d 5d 36 88 bb
       -0.005457285 -1.1494448 0.115355104 -0.0041568712
000230 85 f5 78 3e e1 6a af bd 85 c2 f9 3e 25 c6 f7 3e
       0.24312408 -0.085653074 0.4878122 0.4839336
000240 95 f9 38 bf 92 fb 2e 3e c6 84 d4 3e ea ab 13 3f
       -0.7225583 0.17088154 0.41507548 0.57684195
000250 80 c1 9f be 66 1c 1a bd 08 43 10 3f 2c 2c 05 3e
       -0.31202316 -0.03762474 0.5635228 0.13005131
000260 d9 a0 0d bf c4 32 54 3c 4f 58 a6 3e a5 e3 ad be
       -0.5532356 0.012951557 0.3248925 -0.33962741
000270 8d 5b 0b be db 3f 1f bd 70 4c a4 be 74 82 64 3f
       -0.13609143 -0.038879257 -0.32089567 0.89261556
000280 07 90 90 3e 16 5b 99 3d 0e b6 de 3d 45 f1 57 bc
       0.28234884 0.074880764 0.10874568 -0.013180082
000290 cc 2d 2b bf 5f b1 c1 3e 9a db 4b 3f a2 86 c1 be
       -0.66866755 0.37830636 0.7963196 -0.3779803
0002a0 dc dc 3b 3d 64 94 1a bd 65 26 ea 3d e9 08 0f bf
       0.045864925 -0.037739173 0.114331044 -0.5587297
0002b0 e5 b1 82 3e a2 e0 23 bf 31 77 a9 3e ba 4c b3 bf
       0.25526348 -0.6401464 0.33098748 -1.400779
0002c0 67 90 55 3f ad 3c 0f be 09 b3 e9 bb 7a 23 cc 3e
       0.83423465 -0.1398799 -0.0071319384 0.39870816
0002d0 2f f8 a1 bb 4f f1 01 bf 66 da 06 bf 2c 0f eb bf
       -0.004942916 -0.5075883 -0.52677 -1.8364005
0002e0 f9 86 ba 3e 6c cc cc be 55 a7 cf 3e 14 ba 9d 3e
       0.364311 -0.39999712 0.40557352 0.3080603
0002f0 e3 db cf 3e d3 d1 f4 bd 36 f6 d3 3e b7 d7 5d 3f
       0.40597448 -0.11954083 0.41398782 0.8665728
000300 d6 36 6f be 97 a8 53 be 10 f4 a5 3d 32 de 69 be
       -0.23360762 -0.2066978 0.08103192 -0.22838667
000310 24 41 60 be e4 20 04 3e 6b 00 86 3d 81 2c 33 be
       -0.21899849 0.12903172 0.065430485 -0.17497446
000320 d5 57 44 bd 82 2e c6 be 70 66 84 3d d6 6a f6 3c
       -0.047935326 -0.38707358 0.06464851 0.03008024
000330 5e 56 c6 3b cd 1e 10 be 5d 32 9a 3c aa 94 81 3d
       0.0060527762 -0.1407425 0.018822843 0.063271835
000340 cd 09 f1 bd fb 97 9f 3d e8 2a 14 3e d8 3f 67 bc
       -0.117694475 0.0779266 0.14469492 -0.014114343
000350 95 05 f6 bd eb 7a 60 3d 9b 6a 8b 3e 0c 8a 34 3c
       -0.120127834 0.054804724 0.2722977 0.011019241
000360 15 4f 72 be dd b2 43 be b7 1b 68 3d a3 5e 6b be
       -0.2366298 -0.191112 0.056667056 -0.2298532
000370 22 9d 31 be 24 42 64 be c9 9a 21 bd eb 70 8d 3e
       -0.17345098 -0.22290856 -0.039454255 0.27625212
000380 48 75 b9 3c 73 7a 3e be bb 8e d0 be 09 75 03 3d
       0.022638932 -0.18601398 -0.40733895 0.032094035
000390 06 5e 85 bd b0 d1 82 be 0e f5 15 be b0 76 c9 be
       -0.06512074 -0.25550604 -0.14644262 -0.39348364
0003a0 60 a1 8f be 38 a4 61 3a 87 df c4 be f6 21 35 bf
       -0.28052807 0.00086075393 -0.38451788 -0.70754945
0003b0 ae 56 77 bc 3f 69 c1 be ab fa 08 be b9 8e 1f be
       -0.01509635 -0.3777561 -0.13376872 -0.15581788
0003c0 66 c0 74 bb 83 71 b5 be a3 c5 3f be 84 4e ca bd
       -0.0037346124 -0.35438165 -0.18727736 -0.09878257
0003d0 82 2a cd be 53 8b 32 be 2a a4 c3 ba 60 ab db 3c
       -0.40071493 -0.1743596 -0.0014926244 0.026815116
0003e0 94 d0 25 3e 92 8b f0 bd 72 a5 09 bf 76 d3 f0 3d
       0.16192847 -0.11745371 -0.53768075 0.11759083
0003f0 f6 3c db be db 45 2e 3e 9e f7 95 be 3b f2 b9 bd
       -0.42819947 0.17018835 -0.2929048 -0.09079405

linear_relu_stack.2.bias f4 [32]
000000 b3 da 14 3f 5d 2b 3e 3f 35 34 3d bd 74 c0 0e be
       0.5814621 0.7428492 -0.046192367 -0.13940603
000010 f9 36 81 3f f6 f1 4f be a1 76 d7 bd 06 aa fd bd
       1.0094901 -0.20307145 -0.105206735 -0.12385945
000020 69 d3 82 3f cc 32 0a 3f 4b ed 83 3f 24 fa 0e be
       1.0220767 0.5398376 1.0306791 -0.13962609
000030 b6 5e 57 bf ca b8 a1 3e 55 70 90 bd d6 31 ac bd
       -0.8412889 0.31586295 -0.07052676 -0.08407943
000040 ce 2d d0 be 7d b9 a5 bf e8 6c d5 3b 84 3b 37 3f
       -0.40659946 -1.2947232 0.006513227 0.7157519
000050 fa 53 9d be 81 76 54 be 8a 5d d1 be 63 95 33 3e
       -0.30728132 -0.2074833 -0.40891677 0.17537455
000060 59 e7 32 be e4 39 b0 be 81 61 88 be 79 cb 4c bf
       -0.17471065 -0.34419167 -0.2663689 -0.79997975
000070 27 4d 6a 3f d4 d8 30 3f 45 61 81 be f7 9a 50 be
       0.91523975 0.69080853 -0.25269523 -0.20371614

linear_relu_stack.4.weight f4 [1, 32]
000000 f6 2e 1b 3e 60 5a bb bd 38 6d 08 3b 19 59 ad bc
       0.15154633 -0.09148097 0.0020817053 -0.02116065
000010 12 cd 4e be 09 c0 85 3e 21 5c b4 3b 35 74 60 3c
       -0.20195416 0.26123074 0.0055041467 0.013699581
000020 e8 ac 30 3e fd 51 3f be 5e 74 9e 3e 6a 67 aa 3c
       0.17253458 -0.1868362 0.30948156 0.020801265
000030 27 5c 92 be 50 8a 45 3d 40 d8 e6 be 1d d3 89 3c
       -0.28585932 0.04822761 -0.4508686 0.0168243
000040 23 a3 37 bd f7 99 44 be 40 a9 7e 3e b8 48 e2 bd
       -0.044833314 -0.19199358 0.24869251 -0.11049026
000050 fe 66 1b bd b9 32 a2 bb 61 30 c6 be 1c 83 7d be
       -0.037940018 -0.0049498943 -0.38708785 -0.24757046
000060 6a 09 35 bd ad 7e 8e 3e e5 05 2e 3c 7d db 8e 3b
       -0.04419843 0.2783102 0.010621523 0.004359661
000070 26 a7 fc 3d 78 98 01 3e 0a 67 ad 3e 4c d1 35 3e
       0.123365685 0.12655818 0.33867675 0.17755622
